model-sc-2.pt (torch, 213369 bytes, 200 tensors)

input_conv.weight f4 [32, 1, 5, 5]
0	0xbd1b0f72	-0.037856527
1	0x3e076075	0.13220389
2	0x3ba09895	0.0049010017
3	0xbcd98d10	-0.026556522
4	0xbdfb1c1a	-0.12261219
5	0x3ceb2438	0.028703794
6	0x3d37c5ee	0.044866495
7	0xbe209a34	-0.15683824
8	0x3d05e2d8	0.03268704
9	0x3cd63ab7	0.026151044
10	0xbe0bd823	-0.13656668
11	0xbd6ad270	-0.057329595
12	0xbd672113	-0.056428026
13	0x3dea425c	0.11438438
14	0x3ca6a59a	0.020342637
15	0xbc34b31e	-0.011029033
16	0x3c6bd241	0.01439339
17	0xbd406c16	-0.04697808
18	0x3d99704c	0.07492122
19	0x3d10926e	0.035295896
20	0x3e00a684	0.1256352
21	0x3ca842c3	0.020539647
22	0xbda92924	-0.082598
23	0x3dd336df	0.103132
24	0xbabe1d23	-0.0014504533
25	0xbccc75ff	-0.024958609
26	0xbe4ec002	-0.20190433
27	0xbeecdd79	-0.4626272
28	0x3eef9927	0.46796533
29	0x3e3a8f67	0.18218766
30	0xbd51f05e	-0.051254623
31	0xbf0927ed	-0.53576547
32	0xbf21fbbc	-0.6327474
33	0x3fa435bd	1.28289
34	0x3f0b56f7	0.5442957
35	0xbd294207	-0.041322734
36	0xbf62a76f	-0.88536733
37	0xbf53816b	-0.8261935
38	0x3f8b6bec	1.089231
39	0x3f3feaae	0.7496747
40	0xbe643ed6	-0.22289595
41	0xbf0b85df	-0.54501146
42	0xbedd15f2	-0.43180805
43	0x3ed9cd3c	0.42539394
44	0x3f14ed89	0.5817495
45	0xbd6db27f	-0.058031555
46	0x3c51931b	0.01279142
47	0xbeeaf5f6	-0.45890778
48	0x3d89d277	0.06729596
49	0x3dbd4fab	0.09243711
50	0xbb9d5cb1	-0.0048023094
51	0x3b1db2f2	0.0024062959
52	0x3b965b91	0.0045885523
53	0xbc8256e4	-0.015910573
54	0xbc1e887d	-0.009676096
55	0x3ce37f5e	0.027770694
56	0x3c9e7631	0.019343467
57	0x3c57cd93	0.013171571
58	0xbbd4eb11	-0.0064977487
59	0xba6684b2	-0.0008793577
60	0x3bcca74e	0.00624553
61	0xbc16aa52	-0.009195881
62	0xbb500f9f	-0.0031747592
63	0xbc691eef	-0.014228567
64	0x3c1aea1b	0.009455229
65	0xbcbf7c27	-0.02337463
66	0xbbd10dc6	-0.0063798157
67	0x3be3aa33	0.0069477796
68	0xba8de456	-0.0010825496
69	0x3c1364d7	0.00899621
70	0x3b0d9821	0.0021605568
71	0x3c1361df	0.008995502
72	0x3c4b1988	0.012396224
73	0x3b94b43b	0.0045380867
74	0xbb647756	-0.0034861169
75	0x3c3035b6	0.010754993
76	0x3e6e73d9	0.2328638
77	0x3e5936db	0.21212332
78	0xbee7cb6f	-0.45272395
79	0xbec1d9ae	-0.3786139
80	0xbf1af19a	-0.60524905
81	0xbe9aaab4	-0.3020836
82	0x3f863f4d	1.0488068
83	0x3e9b5f5f	0.303462
84	0xbe5a9cd4	-0.21348888
85	0xbefda134	-0.4953705
86	0xbee0a7ff	-0.4387817
87	0x3f3a5f31	0.728015
88	0x3d1c72d2	0.03819544
89	0xbe4040ad	-0.18774672
90	0xbe89df2c	-0.2692808
91	0xbed70106	-0.41992968
92	0x3e8aac83	0.2708474
93	0x3dd11824	0.102096826
94	0x3e3b8cb4	0.18315393
95	0xbdd54f55	-0.10415522
96	0x3cdf7d76	0.027281504
97	0x3f3acb45	0.72966415
98	0x3dc008ea	0.093767
99	0xbdaa64c3	-0.0832
100	0x3bc5caa9	0.006036122
101	0x3abad7e2	0.0014255012
102	0x3b103ba2	0.00220082
103	0x3d5bb032	0.05363483
104	0x3c900f6e	0.017585482
105	0xbd8c83d3	-0.06861081
106	0xbd173554	-0.036916092
107	0xbd67d433	-0.056598853
108	0x3d35f7d5	0.044425804
109	0xbb555571	-0.0032552148
110	0x3baeb246	0.0053313104
111	0x3d8e08a1	0.069352396
112	0xbd1e0bbf	-0.03858542
113	0x3cff5494	0.03116826
114	0xbd0dbd66	-0.034604453
115	0x3cd4de04	0.025984772
116	0x3d03a675	0.032141168
117	0xbd43a812	-0.047767706
118	0x3c534d85	0.0128969
119	0xbce72e36	-0.028220277
120	0xbcb3ab3d	-0.021932239
121	0x3bac2f30	0.0052546486
122	0xb9fbc870	-0.00048023788
123	0xbbdde81a	-0.0067720534
124	0x3b994293	0.0046771257
125	0x3d9f3ca4	0.07775238
126	0xbe24cd07	-0.16093837
127	0xbc5f91f2	-0.013645636
128	0xbe814b50	-0.2525277
129	0x3e50e60d	0.20400257
130	0x3e3abf23	0.18236975
131	0x3f1a67be	0.6031455
132	0x3f1ff3a8	0.62481165
133	0xbe21be82	-0.15795329
134	0xbd968f07	-0.07351499
135	0xbd402d33	-0.046918105
136	0x3f41de4e	0.75729835
137	0x3f89afb2	1.0756743
138	0x3decb2e4	0.11557558
139	0xbebda81a	-0.37042314
140	0xbd5b7689	-0.05357984
141	0xbd3ac677	-0.045599427
142	0x3f4e218a	0.80519927
143	0x3eaaed72	0.3338428
144	0xbf25c7e1	-0.64758116
145	0xbd56199b	-0.052270513
146	0xbe9bef10	-0.30455828
147	0x3ef9cd66	0.4878952
148	0x3e40bf08	0.18822873
149	0xbe955153	-0.29163608
150	0x3efbf19b	0.49207768
151	0xbdd12e01	-0.10213853
152	0xbebba5a5	-0.36649814
153	0xbf0ca9ef	-0.549468
154	0x3e32ca2c	0.17459935
155	0x3f1a1a10	0.6019602
156	0x3e8ba419	0.27273634
157	0x3e24ef1b	0.16106836
158	0xbf97c5d4	-1.1857247
159	0x3d9c9ddc	0.07647297
160	0x3f74adf7	0.9557795
161	0x3f4ec29a	0.8076569
162	0x3e1116fa	0.14168921
163	0xbfba9da1	-1.4579355
164	0xbeafd7ec	-0.34344423
165	0x3f740f9e	0.9533633
166	0x3ee119b6	0.43964928
167	0xbf401ca0	-0.7504368
168	0xbf6110a9	-0.87916046
169	0x3d427b4c	0.047480866
170	0x3ec4f87f	0.38470837
171	0x3dadb629	0.0848201
172	0xbeb271d9	-0.34852484
173	0xbe14f993	-0.1454833
174	0x3de61c47	0.11235862
175	0x3e1bf3cf	0.15229724
176	0x3bcf02fc	0.0063174944
177	0x3dffcb68	0.124899685
178	0xbd0abc80	-0.033871174
179	0xbe3ef8ab	-0.18649547
180	0xbd93db17	-0.072195224
181	0xbca61fbd	-0.020278806
182	0xbde10afa	-0.10988422
183	0x3f4fbf17	0.81150955
184	0xbd2fcf84	-0.04292251
185	0xbeb2d52e	-0.34928268
186	0x3e7cd0df	0.24689053
187	0x3f03d2a5	0.51493293
188	0x3f9d4f6a	1.228986
189	0xbda9e410	-0.082954526
190	0xbdb76ab0	-0.08955896
191	0xbdf8dd69	-0.12151606
192	0x3d1620ad	0.036652256
193	0x3ea2fc16	0.3183295
194	0xbdf84861	-0.1212318
195	0x3da344fc	0.07972142
196	0xbe67c8b7	-0.2263516
197	0x3ed11fec	0.40844667
198	0x3a676997	0.0008827685
199	0xbe2d62f0	-0.16932273
200	0x3d932a67	0.07185822
201	0x3bdb3f77	0.006690915
202	0xbe9f88e1	-0.31159118
203	0x3edfa436	0.4367997
204	0x3c24aafe	0.010050533
205	0x3def8aa6	0.11696367
206	0xbe51deca	-0.20495144
207	0xbf418ecc	-0.75608516
208	0x3f941e22	1.1571696
209	0x3e41fea5	0.18944795
210	0x3ebdc84f	0.37066886
211	0x3cca68c1	0.024708154
212	0xbfa21aa1	-1.2664376
213	0x3f37e7ad	0.71837884
214	0x3eaee595	0.34159532
215	0x3e787f0a	0.24267212
216	0x3dd7e334	0.105413824
217	0xbf953683	-1.1657261
218	0xbea981e3	-0.33106908
219	0x3ed4257c	0.41434848
220	0x3e2f16b9	0.17098512
221	0x3e33e5a1	0.17568065
222	0xbe276d72	-0.16350344
223	0xbeb733be	-0.35781664
224	0x3e58e85a	0.21182385
225	0xbe32cce4	-0.17460972
226	0x3e199926	0.14999828
227	0x3f1be46b	0.60895413
228	0x3e245006	0.16046152
229	0xbdad584d	-0.08464108
230	0x3e8d6885	0.27618805
231	0x3f0acc79	0.5421825
232	0xbeb57b15	-0.35445467
233	0xbfa16329	-1.2608386
234	0xbe081e29	-0.13292755
235	0xbeb1ee91	-0.34752324
236	0xbd24b75a	-0.04021392
237	0x3d8020bf	0.06256246
238	0xbdebe374	-0.115179926
239	0x3e96e22c	0.2946943
240	0xbe687d22	-0.22703984
241	0xbe4834bf	-0.19551371
242	0x3f145640	0.5794411
243	0x3f0bd1ca	0.5461699
244	0xbec65319	-0.38735273
245	0x3e1dbbda	0.15403691
246	0xbe966c27	-0.2937939
247	0xbf23bf02	-0.6396333
248	0x3f1e1dd7	0.6176428
249	0x3e73b3a6	0.23798999
250	0x3ba6cc6d	0.0050902874
251	0x3ca63ccd	0.020292664
252	0xbccb2966	-0.024800014
253	0x3d653e6d	0.055967737
254	0x3d667c39	0.05627081
255	0xbdae4ece	-0.085111246

input_conv.bias f4 [32]
0	0xb57e02b5	-9.462631e-07
1	0xb608e30f	-2.0397745e-06
2	0xb3c8646d	-9.331493e-08
3	0x37148d0d	8.854328e-06
4	0x34c79975	3.7178293e-07
5	0x376913ae	1.3892464e-05
6	0x35eacde5	1.7494282e-06
7	0x36401b26	2.8626032e-06
8	0xb65d191f	-3.2946189e-06
9	0xb69ec11e	-4.7312487e-06
10	0x349481a8	2.7661486e-07
11	0xb421ca72	-1.5067943e-07
12	0x3490f499	2.7000058e-07
13	0xb5fe7dd2	-1.8961093e-06
14	0x359901b7	1.1399887e-06
15	0x36a97601	5.05033e-06
16	0x351fbec7	5.9509733e-07
17	0xb66dc152	-3.542828e-06
18	0x36d07101	6.2120384e-06
19	0x35b341d2	1.3355696e-06
20	0xb69daa44	-4.698786e-06
21	0x3461c677	2.1026959e-07
22	0x361542b8	2.2241566e-06
23	0xb4a68910	-3.1019636e-07
24	0xb3c7b727	-9.299975e-08
25	0x35c5707b	1.471038e-06
26	0xb658fd24	-3.2333855e-06
27	0x35695ae4	8.693153e-07
28	0xb3292886	-3.9385235e-08
29	0x3464801f	2.1280765e-07
30	0x351ea8e9	5.9105383e-07
31	0x3629f054	2.5322852e-06

t1.f2.0.weight f4 [16, 32, 1, 1]
0	0x3ca8784e	0.020565178
1	0x3eceab95	0.40365282
2	0x3b452a2e	0.0030084956
3	0x3ee14740	0.43999672
4	0x3b0f7b86	0.0021893694
5	0xbe6d98b7	-0.23202787
6	0xbfab2e22	-1.3373454
7	0x3e5dbe0a	0.21654525
8	0xbe02e903	-0.127842
9	0x3da3df32	0.080015555
10	0x3c3357c3	0.010946217
11	0xbb8f7af4	-0.004378671
12	0xbc791477	-0.015202633
13	0xbc9fa63d	-0.019488448
14	0xbdf3cde1	-0.11904503
15	0x3e5beb01	0.21476366
16	0xbcea9b70	-0.028638572
17	0xbda10d2f	-0.07863843
18	0xbb2a525b	-0.002598903
19	0xbe3d6920	-0.18497133
20	0xbdf22066	-0.11822586
21	0xbcaf45e7	-0.021395637
22	0x3db86063	0.09002759
23	0xb92ddf11	-0.00016581664
24	0xbc6ce0a3	-0.014457854
25	0xbda2b646	-0.07944922
26	0xbdd7892d	-0.10524211
27	0xbe244232	-0.16040877
28	0x3be58115	0.007003913
29	0xbb4af861	-0.00309708
30	0x3d9d81a8	0.076907456
31	0xbd29184f	-0.041282948
32	0x3db2b052	0.08725037
33	0x3ea6dd7c	0.32590854
34	0x3bf6c3dd	0.007530673
35	0xbe84fbb8	-0.25973296
36	0xbcb9fdce	-0.022704031
37	0xbe374e5a	-0.17900982
38	0x3df9a0e0	0.121888876
39	0x3e2af55a	0.16695157
40	0x3ec91ec8	0.39281297
41	0xbe49f6f7	-0.19723116
42	0xbcfcd31c	-0.030862384
43	0xbbc54a74	-0.0060208384
44	0x3d44d0c8	0.04805067
45	0xbd600f5f	-0.05470216
46	0xbef5b44e	-0.47989124
47	0xbd8676ee	-0.06565653
48	0xbd838a88	-0.06422907
49	0xbe85980c	-0.26092565
50	0xbe29a7c8	-0.1656791
51	0xbe549a95	-0.20762093
52	0x3e9a4651	0.30131772
53	0xbd7b0426	-0.061283253
54	0x3db42904	0.087968856
55	0xbc62e782	-0.013849141
56	0x3d22ecec	0.039776728
57	0x3d0e2a81	0.034708504
58	0xbdc178ef	-0.094468944
59	0xbe15e548	-0.14638245
60	0xbc1443ef	-0.0090494
61	0x3d2ba22a	0.0419027
62	0xbe747661	-0.23873283
63	0x3c2cc623	0.010545286
64	0x3dccf43c	0.100075215
65	0xbcde1b26	-0.027112555
66	0x3bf47990	0.0074607804
67	0xbe03367c	-0.12813753
68	0x3c1ad01a	0.009449029
69	0xbe34dc98	-0.17662275
70	0x3f73e8b1	0.95276934
71	0xbe5ecc69	-0.21757664
72	0x3f1461ed	0.5796192
73	0x3c1a030e	0.009400142
74	0x3d80d84e	0.06291257
75	0xbcd870b4	-0.026420929
76	0xbd487a30	-0.048944652
77	0xbdff1a2f	-0.12456166
78	0x3c1ee636	0.009698441
79	0xbee94f5a	-0.45568353
80	0xbdd5e5e3	-0.10444238
81	0x3e65222b	0.22376315
82	0xbed36ead	-0.41295376
83	0xbebfda6f	-0.3747134
84	0x3df6f8f6	0.12059204
85	0xbdec6c6c	-0.11544117
86	0x3e692c83	0.22770886
87	0xbc3895ea	-0.011266211
88	0xbdaa76b7	-0.08323424
89	0xbe0fba61	-0.14035942
90	0xbeaf0944	-0.34186757
91	0xbe192fa3	-0.14959578
92	0x3d525718	0.05135259
93	0xba9b1f35	-0.0011834862
94	0xbeb1b200	-0.34706116
95	0xbe22ad7b	-0.1588649
96	0xbd99026d	-0.07471166
97	0xbddc41bf	-0.107547276
98	0x3cb4d44a	0.022073884
99	0x3ea8b03e	0.32946962
100	0xbd23f07a	-0.04002426
101	0xbf18d0c7	-0.5969357
102	0x3db28268	0.08716279
103	0xbf308229	-0.6894861
104	0xbed38516	-0.41312474
105	0xbcf65e95	-0.030074397
106	0xbce3f50c	-0.027826808
107	0x3c08beb8	0.008346252
108	0x3cb897db	0.022533348
109	0xbd8a639b	-0.067572795
110	0x3e7d2c63	0.24723963
111	0x3e072f4c	0.13201636
112	0x3dd8d471	0.10587395
113	0x3c9f358c	0.019434713
114	0x3e882b55	0.2659556
115	0x3e202646	0.156396
116	0xbe1fa753	-0.15591173
117	0x3d24b8fd	0.04021548
118	0x3c2fa9d3	0.010721642
119	0x3c75fec1	0.015014351
120	0x3cab2477	0.020891411
121	0xbdb45e00	-0.088069916
122	0x3e021c69	0.1270615
123	0x3ec12672	0.37724644
124	0xbd89d7ef	-0.06730639
125	0x3ce9785d	0.028499776
126	0x3e5ed08e	0.21759245
127	0x3e82616d	0.25464955
128	0xbe093ee8	-0.13402903
129	0xbecd9254	-0.40150702
130	0xbc9e9b11	-0.01936105
131	0xbec69009	-0.38781765
132	0x3d879839	0.06620831
133	0x3ee5a015	0.44848695
134	0x3f01c530	0.5069151
135	0xbd9dd604	-0.07706836
136	0xbd70c5b5	-0.058782298
137	0xbe833dfe	-0.25633234
138	0x3d91661d	0.07099555
139	0xbd0612ad	-0.032732654
140	0xbd89bf70	-0.06725967
141	0x3ece99e7	0.40351793
142	0xbdc8b0df	-0.097993605
143	0x3f052a16	0.52017343
144	0x3d18d6b4	0.03731413
145	0xbcca6ef2	-0.024711106
146	0xbe7f6a6e	-0.24942943
147	0xbd261388	-0.04054597
148	0xbe872f12	-0.264031
149	0x3d142204	0.036165252
150	0x3e5f317b	0.21796219
151	0xbd0f94ea	-0.035054125
152	0xbd68b7da	-0.05681596
153	0xbd8b9fb2	-0.06817569
154	0xbe3946ce	-0.18093416
155	0xbe23ff76	-0.1601542
156	0x3e0a0d4e	0.13481638
157	0xbe20c4fb	-0.15700142
158	0xbf084c59	-0.532415
159	0xbe394124	-0.18091255
160	0xbc44bfdd	-0.012008634
161	0xbf0757c2	-0.5286828
162	0x3c2feb2e	0.010737224
163	0x3e80f5e1	0.2518759
164	0xbc8807cf	-0.016605286
165	0x3f4a6ebd	0.79075223
166	0xbe165874	-0.1468218
167	0x3e812171	0.25220826
168	0xbe589c3b	-0.21153347
169	0xbe1c0b32	-0.15238646
170	0xbd931f1c	-0.07183668
171	0x3d5a3281	0.05327082
172	0x3dbdf9d1	0.09276164
173	0x3e381624	0.17977196
174	0xbf238af9	-0.6388393
175	0x3edade8f	0.42747924
176	0xbe023667	-0.12716065
177	0xbedb08e1	-0.42780212
178	0x3d4caf7a	0.049972035
179	0x3eb57470	0.35440397
180	0xbecdfc62	-0.40231615
181	0x3d508ebf	0.050917383
182	0xbdd821c6	-0.10553317
183	0x3d112d96	0.035443865
184	0x3d9ea3e6	0.07746105
185	0x3de525ca	0.11188848
186	0xbe345089	-0.17608847
187	0xbebd7e35	-0.3701035
188	0x3e176eec	0.14788407
189	0x3df91246	0.121616885
190	0xbc47f09e	-0.012203364
191	0xbc39ae4f	-0.011333062
192	0xbd680f4c	-0.056655213
193	0x3efa5f1e	0.48900694
194	0xbbb71e70	-0.005588345
195	0xbee7b7bd	-0.4525737
196	0x3c19a437	0.009377531
197	0xbcae3715	-0.0212665
198	0x3e0e677f	0.13906668
199	0x3e3de9ff	0.18546294
200	0x3e9ec723	0.31011304
201	0xbda2bab8	-0.0794577
202	0xbb784395	-0.003788208
203	0xbadd9fb1	-0.0016908554
204	0xbc07f459	-0.008298003
205	0x3e099c84	0.13438612
206	0xbef9b935	-0.48774114
207	0xbdfe18fb	-0.124071084
208	0x3d08b045	0.03337123
209	0xbe5eb70e	-0.21749517
210	0xbdf1f6af	-0.11814629
211	0x3dc0d392	0.09415354
212	0x3e93b9a3	0.28852567
213	0x3d1bb9fb	0.03801916
214	0xbd6547c6	-0.05597665
215	0xbbfdabbb	-0.007741419
216	0x3c5b25c4	0.013375703
217	0x3dfa25d3	0.12214246
218	0x3dac90dc	0.08426067
219	0xbd93b3a8	-0.07212001
220	0x3cb1c167	0.021698667
221	0xbd884461	-0.06653667
222	0xbe17ec57	-0.1483625
223	0xbd1b6c30	-0.037944973
224	0x3c831b41	0.016004207
225	0x3d4a91ba	0.049455382
226	0xbc99fdc3	-0.01879776
227	0xbc8df845	-0.017330298
228	0x3c6166ba	0.013757402
229	0x3faa94be	1.3326643
230	0xbf269377	-0.65068763
231	0x3f6c4138	0.92287016
232	0xbe26be80	-0.16283607
233	0x3ecd2cc0	0.40073204
234	0x3c377752	0.011197882
235	0xbc9a4bb8	-0.018834934
236	0xba213b7a	-0.00061505253
237	0x3d3d7deb	0.046262663
238	0x3efc6349	0.492945
239	0xbe0b2fc2	-0.13592437
240	0x3d292979	0.041299317
241	0x3e4793b9	0.19489945
242	0x3e2ffe9b	0.17186968
243	0xbe57ef31	-0.21087338
244	0xbce53251	-0.027978094
245	0xbc8c356f	-0.017115323
246	0x3e2da81d	0.16958661
247	0xbd04004a	-0.03222684
248	0xbbe8af85	-0.0071010017
249	0x3d6b80ae	0.057495765
250	0x3d94ef91	0.07272256
251	0x3e3b6fc2	0.18304351
252	0xbd67c997	-0.056588735
253	0x3c8376d8	0.01604788
254	0xbb508651	-0.003181834
255	0xbde83d52	-0.11339821

t1.f2.0.bias f4 [16]
0	0x35f92eae	1.8565531e-06
1	0xb61f0cc4	-2.3700277e-06
2	0xb55e6d39	-8.2860385e-07
3	0x34843cc2	2.4631123e-07
4	0x35a3bac1	1.2198799e-06
5	0x35effef3	1.7881088e-06
6	0xb4c9e596	-3.7606213e-07
7	0x3694831d	4.4260073e-06
8	0xb5005232	-4.7803326e-07
9	0x34012805	1.202862e-07
10	0xb6401a65	-2.8625593e-06
11	0x368353fb	3.913881e-06
12	0x368a857e	4.128261e-06
13	0xb679a055	-3.7197217e-06
14	0xb60dce04	-2.1130554e-06
15	0xb47cdc76	-2.3549532e-07

t1.f2.1.weight f4 [16]
0	0x3f912186	1.1338356
1	0x3e956efa	0.2918623
2	0x3f418974	0.7560036
3	0x3e4278e8	0.18991435
4	0x3ecb8010	0.3974614
5	0x3f32f483	0.69904345
6	0x3f4044f5	0.7510522
7	0x3f09ccb2	0.53827965
8	0x3eb32daf	0.3499579
9	0x3ed9bbb0	0.42526007
10	0x3f029f13	0.5102398
11	0x3ef36c3f	0.47543523
12	0x3ef233cb	0.4730514
13	0x3f3eca8f	0.7452783
14	0x3ef2a418	0.4739082
15	0x3f0dea34	0.5543549

t1.f2.1.bias f4 [16]
0	0xbdabfc77	-0.08397763
1	0x3e9c7bde	0.30563253
2	0x3e9b3068	0.3031037
3	0x3dd54adc	0.10414669
4	0x3f2f5902	0.6849519
5	0x3e5d2fbf	0.21600245
6	0x3e2e116e	0.16998836
7	0x3f3345f0	0.7002859
8	0xbc4c5a5e	-0.012472717
9	0x3dbe6e71	0.09298409
10	0x3f1dcf68	0.616446
11	0x3f30c739	0.6905399
12	0x3f0f9d1f	0.5609912
13	0x3f24c61c	0.6436479
14	0x3f1613b2	0.586238
15	0x3f1fe847	0.624638

t1.f2.1.running_mean f4 [16]
0	0xbfad8813	-1.3557152
1	0x405692af	3.3527029
2	0x40a8477f	5.2587276
3	0x400297fe	2.0405269
4	0xbfb6dff1	-1.4287091
5	0xc0c6bbb0	-6.210411
6	0x40316075	2.7715123
7	0xc11aaae2	-9.666719
8	0xc01a5115	-2.4111989
9	0x4004e3ed	2.0764115
10	0xc0f61e8a	-7.691228
11	0xc06b939a	-3.680884
12	0xc00cca89	-2.1998618
13	0x40bd98c4	5.924898
14	0x3f216063	0.630377
15	0x4019cd55	2.4031575

t1.f2.1.running_var f4 [16]
0	0x4536744f	2919.2693
1	0x4458912b	866.26825
2	0x454b7b80	3255.7188
3	0x443365fa	717.5934
4	0x4495f7f0	1199.748
5	0x451dad20	2522.8203
6	0x443b30d3	748.7629
7	0x45880665	4352.7993
8	0x43f1c16d	483.51114
9	0x43b3a287	359.26974
10	0x45345387	2885.2205
11	0x44e801ad	1856.0524
12	0x43beb719	381.43045
13	0x459d6bab	5037.4585
14	0x43a7d2bc	335.64636
15	0x44b36369	1435.1066

t1.f2.3.weight f4 [16, 1, 3, 1]
0	0xbf214f7f	-0.63011926
1	0xbe0c7a60	-0.13718557
2	0x3e2530e9	0.16131939
3	0x3d696814	0.056984022
4	0xbe0ab692	-0.13546208
5	0x3ec77817	0.3895881
6	0xbefe2002	-0.49633795
7	0xbe4d163a	-0.2002801
8	0xbe680ef7	-0.22661959
9	0xbec4b3e3	-0.38418493
10	0x3dc9e462	0.09858014
11	0x3f186090	0.5952234
12	0xbe1d7fa6	-0.15380725
13	0xbf4f04bc	-0.808666
14	0x3f686f9f	0.9079532
15	0xbf51ca93	-0.8194973
16	0x3f1b726e	0.6072148
17	0x3ef51d97	0.47874138
18	0xbe4a04a6	-0.19728336
19	0xbda56e7d	-0.080777146
20	0xbeb04608	-0.3442843
21	0xbeca9ed0	-0.3957429
22	0xbf2356bb	-0.63804215
23	0x3f839a1c	1.0281405
24	0xbf0e1b85	-0.5551074
25	0x3eaa4bf5	0.33261076
26	0xbe83db18	-0.25753093
27	0xbf0d53ed	-0.55206186
28	0xbdfcf6cc	-0.1235176
29	0x3ca8e0d5	0.02061502
30	0x3f900e8c	1.1254439
31	0xbf2db4fb	-0.6785428
32	0xbe81b147	-0.25330564
33	0x3f5ba974	0.8580544
34	0xbf6481e8	-0.8926072
35	0x3ce165cd	0.027514363
36	0xbf09430f	-0.5361795
37	0x3f86c722	1.052952
38	0xbe2b739d	-0.16743322
39	0xbd7f3f19	-0.062316034
40	0x3e6609ed	0.22464724
41	0xbf5656fa	-0.83726466
42	0xbcf01a29	-0.02930935
43	0xbf5a3827	-0.8524193
44	0x3f5ad771	0.8548499
45	0xbf7798bf	-0.9671745
46	0x3f6aff93	0.91796225
47	0x3dbc5af6	0.09197037

t1.f2.3.bias f4 [16]
0	0xb7c30f31	-2.3252886e-05
1	0x38f2a89d	0.00011570866
2	0xb7ea7243	-2.7948181e-05
3	0xb8dc6f0a	-0.000105111
4	0xb89d3de2	-7.49787e-05
5	0x375b184c	1.3059074e-05
6	0x38791d0e	5.9393285e-05
7	0xb8a4c480	-7.8567304e-05
8	0xb86d8588	-5.6629564e-05
9	0xb7335d6f	-1.0690986e-05
10	0x393977c8	0.00017687597
11	0x387e9115	6.0693437e-05
12	0x396570f2	0.00021881217
13	0x3984a236	0.00025297859
14	0xb87beceb	-6.006371e-05
15	0xb944210f	-0.00018704332

t1.f2.4.bn.weight f4 [80]
0	0x3ee0c7fa	0.4390257
1	0x3f430239	0.76175267
2	0x3f7fef93	0.99974936
3	0x3f881662	1.0631831
4	0x3f82f0d6	1.0229747
5	0xbeb361c3	-0.35035524
6	0x3f10bd41	0.5653878
7	0x3eba9aaa	0.36446124
8	0x3f479e76	0.7797617
9	0x3f1a2ce3	0.6022474
10	0x3f584d98	0.844934
11	0x3f30eef9	0.69114643
12	0x3f3b08b1	0.7306014
13	0x3e256377	0.16151224
14	0x3ed9b45e	0.42520422
15	0x3f0cc393	0.5498592
16	0x3e88894d	0.26667252
17	0x3ec7a6c7	0.3899443
18	0x3f4b8b5e	0.7950953
19	0x3f3488d1	0.70521265
20	0x3f023331	0.5085936
21	0x3f1e140b	0.61749333
22	0x3f42ba7c	0.760658
23	0x3ea0f429	0.3143628
24	0xbd22cfa4	-0.039748803
25	0x3ed08026	0.4072277
26	0x3f28828d	0.65824205
27	0x3f0703ee	0.5274037
28	0x3f144ca9	0.57929474
29	0x3f1ddd37	0.6166567
30	0x3f22a38d	0.6353081
31	0x3c8652a2	0.016396824
32	0x3f3837c5	0.719601
33	0x3f164f03	0.5871431
34	0x3f20d23c	0.6282079
35	0x3f3b67d6	0.73205316
36	0x3f289adc	0.65861297
37	0x3f669ba4	0.9008124
38	0x3f0f2572	0.5591651
39	0x3f8fafda	1.1225541
40	0x3df97130	0.12179792
41	0xbe9af23c	-0.30262935
42	0x3ef3e4de	0.4763555
43	0x3f09f267	0.538855
44	0x3ead25d9	0.33817938
45	0x3e6a1912	0.22861126
46	0x3efa44d7	0.48880646
47	0x3ec73fc9	0.38915852
48	0x3ed95786	0.42449588
49	0x3dc7e735	0.09760896
50	0x3f7d26c2	0.98887265
51	0x3f29b6bf	0.66294473
52	0x3f2c2e23	0.672579
53	0x3eff9f1a	0.49926072
54	0x3ef172bf	0.47157857
55	0x3f976e68	1.1830568
56	0x3f5628ed	0.836562
57	0x3f8cea82	1.1009066
58	0x3f3ab8a4	0.7293799
59	0x3f32a45d	0.6978205
60	0x3f75b540	0.9597969
61	0x3f324a2f	0.69644445
62	0x3f32aec7	0.6979794
63	0x3f0b3402	0.5437623
64	0x3f0e17bd	0.5550497
65	0x3fa2397a	1.267379
66	0x3f4876b5	0.7830613
67	0x3f31715d	0.69313604
68	0x3ee34e34	0.44395602
69	0x3f8ef75f	1.1169242
70	0x3f338926	0.70131147
71	0x3f17f5b2	0.59359276
72	0x3ef1604f	0.4714379
73	0x3f28fb4c	0.6600845
74	0x3f7584bb	0.95905656
75	0x3f74bf3c	0.956043
76	0x3f2d2cc3	0.67646426
77	0x3f437971	0.7635718
78	0x3f2c033b	0.6719243
79	0x3ea1054c	0.31449354

t1.f2.4.bn.bias f4 [80]
0	0x3e9adaf8	0.30245185
1	0x3e950465	0.29104915
2	0x3cf492fd	0.029855246
3	0x3d76dcdb	0.060269218
4	0x3da45d69	0.08025629
5	0xbe888799	-0.26665953
6	0x3e0a901c	0.13531536
7	0x3ea85699	0.3287857
8	0x3ec76f51	0.38952115
9	0x3cba8f4e	0.022773411
10	0x3f2d9464	0.6780455
11	0x3ea02466	0.3127777
12	0x3e4846c7	0.1955825
13	0x3e991fea	0.2990716
14	0x3db36217	0.087589435
15	0xbed86bfd	-0.4226989
16	0xb9c62678	-0.00037794164
17	0x3c89377e	0.016750094
18	0xbdbd6b4b	-0.0924898
19	0x3dacfb07	0.08446317
20	0x3da954e8	0.08268148
21	0xbee4a889	-0.44659832
22	0xbe52a55c	-0.20570892
23	0xbddaa6f4	-0.10676375
24	0x3e6ff86a	0.23434606
25	0x3effecb3	0.49985275
26	0x3f34cb6f	0.70622915
27	0x3f159b8b	0.58440465
28	0xbd39b3e5	-0.045337576
29	0x3cc21f8a	0.02369668
30	0x3edda2e0	0.43288326
31	0xbc607cd2	-0.0137016345
32	0x3ecadd7c	0.39622104
33	0x3ed8dbac	0.42355096
34	0x3d213dab	0.03936545
35	0x3fb6eecb	1.4291624
36	0x3f0aaad2	0.541669
37	0x3ed6a71c	0.4192437
38	0x3f14522c	0.57937884
39	0x3eeda93a	0.46418172
40	0xbd9359c2	-0.07194854
41	0x3d4e38fa	0.050347306
42	0x3e36e177	0.17859446
43	0x3d41fa20	0.04735768
44	0x3efbabd3	0.4915453
45	0x3f1110d6	0.56666315
46	0x3ede5d08	0.43430352
47	0x3eb31110	0.34973955
48	0x3df10bfb	0.11769863
49	0x3deeae20	0.116543055
50	0x3f25d755	0.64781696
51	0x3eee1fb2	0.46508557
52	0x3faaba25	1.3338057
53	0x3f3e9999	0.7445312
54	0x3f0826a4	0.5318396
55	0x3e53e87d	0.20694156
56	0x3db0dfe0	0.08636451
57	0xbe5c0928	-0.21487868
58	0xbda9a15a	-0.082827285
59	0xbd3f73db	-0.046741348
60	0x3f139efb	0.5766446
61	0x3e871856	0.26385754
62	0xbe9bc681	-0.30424884
63	0x3dde1c55	0.10845248
64	0x3e302a61	0.17203666
65	0x3f89f9cd	1.0779358
66	0x3f178b18	0.59196615
67	0x3e045f3f	0.12926959
68	0x3f02c60f	0.51083463
69	0x3f269ee0	0.65086174
70	0xbe17597a	-0.14780226
71	0xbe457e90	-0.19286561
72	0xbe2fe561	-0.17177345
73	0xbd95384a	-0.07286127
74	0xbf0caaae	-0.54947937
75	0x3ed1737c	0.4090842
76	0xbcd653f0	-0.026163071
77	0xbf027850	-0.5096483
78	0xbe6361e6	-0.22205314
79	0xbe235521	-0.15950443

t1.f2.4.bn.running_mean f4 [80]
0	0xbdc131d9	-0.09433336
1	0xbe2bb5e1	-0.167686
2	0xbe131874	-0.14364797
3	0xbe0958d4	-0.13412791
4	0xbe07fcf3	-0.13280086
5	0x3dbdb6f1	0.09263409
6	0x3dcb21c4	0.0991855
7	0x3dc982fc	0.098394364
8	0x3dc7691c	0.09736845
9	0x3d8ad3c7	0.067786746
10	0xbe9364ee	-0.2878794
11	0xbeb35375	-0.3502461
12	0xbeb3cfa2	-0.3511935
13	0xbeb3b0f9	-0.35095957
14	0xbea7b9fa	-0.32759076
15	0x3d428abd	0.047495592
16	0x3d26fa2f	0.040765937
17	0x3d3791c0	0.044816732
18	0x3d3525fc	0.044225678
19	0x3cdf6ed3	0.027274525
20	0xbbdfe174	-0.006832296
21	0xbd2d55c6	-0.042318128
22	0xbd217b9d	-0.039424527
23	0xbd1b8f90	-0.03797871
24	0xbe4cb428	-0.19990599
25	0x3e3e07f5	0.18557723
26	0x3dbe15df	0.09281515
27	0x3dac4ae3	0.08412721
28	0x3db9ea89	0.09077937
29	0x3d363fa7	0.044494297
30	0xbe28ef91	-0.16497637
31	0xbe343606	-0.17598733
32	0xbe29a225	-0.1656576
33	0xbe2010ca	-0.15631405
34	0xbe0b9de4	-0.13634449
35	0x3d9fed37	0.07808917
36	0xbcce0f9a	-0.025153924
37	0xbc474bbd	-0.0121640535
38	0xbb2df53d	-0.0026543878
39	0xbe469724	-0.19393593
40	0xbd199d4e	-0.037503533
41	0xbd555b2c	-0.0520889
42	0xbd38c770	-0.045112073
43	0xbd2d4101	-0.04229832
44	0xbd19321c	-0.037401304
45	0xbdc78dcc	-0.097438425
46	0xbdda9501	-0.106729515
47	0xbdcb25c8	-0.099193156
48	0xbdb7cc17	-0.08974474
49	0xbdbe00f0	-0.092775226
50	0xbd6f207f	-0.0583806
51	0x3e11c784	0.14236265
52	0x3e05d95d	0.13071199
53	0x3e017ea8	0.12645972
54	0x3e318717	0.17336689
55	0xbe2b557e	-0.16731831
56	0x3ab40c1f	0.0013736523
57	0xbb467e49	-0.0030287674
58	0xbbdd2775	-0.0067490884
59	0xbb398739	-0.0028309359
60	0x3e992027	0.29907343
61	0x3e61f72f	0.2206695
62	0x3e53a438	0.20668113
63	0x3e56ce62	0.20977166
64	0x3e759170	0.23981261
65	0xbee9e9bd	-0.4568614
66	0xbeeecbe1	-0.46639922
67	0xbeed7265	-0.4637634
68	0xbeec78c7	-0.46185896
69	0xbea2b723	-0.31780347
70	0xbcdccee1	-0.026954116
71	0xbc4dab9e	-0.012553124
72	0xbc9db5fb	-0.019251814
73	0xbc520d3c	-0.012820538
74	0xbe19b480	-0.15010262
75	0x3e41e66f	0.1893556
76	0x3cccae54	0.02498547
77	0x3cc8ea44	0.024525769
78	0x3cdf8746	0.027286183
79	0x3c500266	0.012695884

t1.f2.4.bn.running_var f4 [80]
0	0x3e05db21	0.13071872
1	0x3e5813f0	0.21101356
2	0x3e419d80	0.18907738
3	0x3e3b1bc7	0.18272315
4	0x3e550d95	0.20805962
5	0x3bf661e3	0.007518993
6	0x3beeec33	0.0072913407
7	0x3be956ae	0.0071209287
8	0x3be950ea	0.0071202414
9	0x3bf7eb92	0.007565924
10	0x3e912af5	0.28353086
11	0x3ebdca38	0.37068343
12	0x3ebb70a8	0.36609387
13	0x3ebbeee0	0.36705685
14	0x3ea462c0	0.3210659
15	0x3bbac351	0.005699553
16	0x3b3ce9bf	0.0028825847
17	0x3b3bb35e	0.0028640847
18	0x3b3ead7b	0.0029095102
19	0x3b974b31	0.004617118
20	0x3c82d18b	0.015969058
21	0x3c003ea8	0.007827438
22	0x3bcc6ad0	0.006238319
23	0x3b981eee	0.004642359
24	0x3dc5938b	0.09647282
25	0x3d85123b	0.06497618
26	0x3cb1d1e1	0.021706523
27	0x3c90e351	0.017686518
28	0x3c719d92	0.01474704
29	0x3c897d04	0.016783245
30	0x3e13ffc9	0.14453043
31	0x3e27b23f	0.16376589
32	0x3e246229	0.1605307
33	0x3e25757b	0.16158096
34	0x3df4d993	0.119555615
35	0x3d51d416	0.05122765
36	0x3c4288eb	0.011873464
37	0x3c1809b4	0.009279657
38	0x3bf2c1c4	0.0074083526
39	0x3e0b12d8	0.13581407
40	0x3bc763bb	0.006084887
41	0x3bf1c6c3	0.0073784306
42	0x3bc33750	0.0059575215
43	0x3bb6d075	0.0055790492
44	0x3b9665f6	0.0045897914
45	0x3d5e92c3	0.05433918
46	0x3d56c7e1	0.052436713
47	0x3d4c9dc4	0.049955145
48	0x3d4a146a	0.049335875
49	0x3d4dff54	0.050292328
50	0x3e38f627	0.1806265
51	0x3ca5ad01	0.020224096
52	0x3c73a4b2	0.014870809
53	0x3c3c9071	0.011509047
54	0x3ca6e2ba	0.020371784
55	0x3e0d20f5	0.13782103
56	0x3c8966de	0.016772684
57	0x3c4f6e2c	0.012660544
58	0x3c191941	0.0093444
59	0x3c033141	0.0080073485
60	0x3df89d9e	0.12139438
61	0x3d6ea2a0	0.05826056
62	0x3d0be64a	0.034155168
63	0x3cf8a9ab	0.030354341
64	0x3cf3b2f5	0.02974842
65	0x3e563bdc	0.20921272
66	0x3e4e9268	0.20173037
67	0x3e46013e	0.19336411
68	0x3e4400d7	0.19140945
69	0x3e4aa89c	0.19790882
70	0x3e451ae9	0.19248547
71	0x3d6145f4	0.054998353
72	0x3d243386	0.0400882
73	0x3d12609f	0.035736676
74	0x3df6566f	0.12028205
75	0x3e080dff	0.13286589
76	0x3cc302f7	0.023805125
77	0x3c948c66	0.018133353
78	0x3c4ee469	0.012627699
79	0x3c34fd17	0.011046669

t1.f1.0.weight f4 [16, 1, 1, 3]
0	0x3dd94ce7	0.10610371
1	0x3e27c4cc	0.16383666
2	0xbdccb6bf	-0.099957936
3	0xbe20dbef	-0.15708898
4	0x3f0be455	0.5464528
5	0x3cb33138	0.021874055
6	0x3c2f9923	0.010717663
7	0x3eb81cdb	0.35959515
8	0xbf168a37	-0.5880465
9	0xbaff6d89	-0.00194876
10	0xbb5dc9bf	-0.0033842174
11	0x3bb04328	0.0053790994
12	0x3c8322e7	0.016007854
13	0xbddec2c1	-0.1087699
14	0xbe2f2f4a	-0.17107883
15	0x3e0f21eb	0.13977782
16	0xbe5adcaa	-0.21373239
17	0xbe34c3dc	-0.1765284
18	0x3c672a23	0.014109167
19	0x3becc4a6	0.0072255908
20	0xbc219018	-0.009861015
21	0xbe03eb29	-0.12882675
22	0xbdd87426	-0.105690286
23	0xbe5f4057	-0.21801887
24	0x3d9aeee9	0.075651
25	0x3e8a847a	0.27054197
26	0x3c86c8ba	0.016453136
27	0xbd86fc2c	-0.06591067
28	0x3c64275f	0.013925402
29	0xbdc86396	-0.097846195
30	0xbf33b1d2	-0.7019321
31	0x3e22934e	0.15876505
32	0xbced3786	-0.02895714
33	0xbc9b0826	-0.018924784
34	0xbd02d188	-0.031938106
35	0xbe961132	-0.29309994
36	0x3ebd2d58	0.36948657
37	0xbf54686e	-0.8297185
38	0x3ed8a7bf	0.4231548
39	0xbdeff85c	-0.11717293
40	0xbd9ee44f	-0.0775839
41	0xbeb6d95c	-0.35712707
42	0x3e2019f4	0.156349
43	0xbe4c40e0	-0.19946623
44	0x3e2faf02	0.17156604
45	0x3e926958	0.28595996
46	0xbe919a31	-0.2843795
47	0x3e073a9f	0.13205956

t1.f1.0.bias f4 [16]
0	0xb7c474d0	-2.3419416e-05
1	0x38464fd3	4.728122e-05
2	0x372e3ff5	1.0386099e-05
3	0xb27c9fc8	-1.4704661e-08
4	0xb8b47362	-8.6045606e-05
5	0x3795eb01	1.7871616e-05
6	0xb60f7b86	-2.138056e-06
7	0x38a3b69a	7.806458e-05
8	0x38674626	5.5140023e-05
9	0xb82766fe	-3.991182e-05
10	0x380a8641	3.3026798e-05
11	0x3882a40a	6.229438e-05
12	0xb8f06ecd	-0.0001146473
13	0x36dcf303	6.584801e-06
14	0x39521449	0.00020034717
15	0x3740854b	1.14751265e-05

t1.f1.1.weight f4 [16]
0	0x3ebcbb8d	0.3686184
1	0x3edeb33b	0.43496117
2	0x3ec225b4	0.3791939
3	0x39e41c98	0.00043508853
4	0x3de56e8b	0.11202725
5	0x3e24ddc5	0.16100223
6	0x3c0ab1c6	0.008465236
7	0x3dfd9d08	0.12383467
8	0x3e94e835	0.2908341
9	0x3e0ec52f	0.13942407
10	0x3e9d009e	0.30664533
11	0x3e429b33	0.19004516
12	0x3f0ec068	0.5576234
13	0x3e73c615	0.23806031
14	0x3e706447	0.23475753
15	0x3e9dba0c	0.30806005

t1.f1.1.bias f4 [16]
0	0x3d0a9e1d	0.033842195
1	0x3d05d94c	0.032677934
2	0xbddc0bb3	-0.10744419
3	0x399e24fe	0.0003016367
4	0xbc05e492	-0.008172171
5	0xbc3a5942	-0.01137382
6	0x3baf31e6	0.0053465245
7	0xbd8770bb	-0.066132985
8	0xbd46e7fe	-0.04856109
9	0x3c0238ba	0.007948095
10	0xbdf38244	-0.118900806
11	0xbd17dab1	-0.037073795
12	0xbcc5c5b3	-0.024142122
13	0xbd14bb23	-0.03631128
14	0x3b7df811	0.0038752595
15	0x3a16ddd1	0.0005755099

t1.f1.1.running_mean f4 [16]
0	0x3cdde74e	0.027087834
1	0x3d5aa8f9	0.0533838
2	0xbdb4474c	-0.08802661
3	0xb66271ac	-3.374279e-06
4	0x3cb7ebbc	0.022451274
5	0xbdb62f5d	-0.088957526
6	0x3b4c40dd	0.0031166591
7	0xbe9af35e	-0.302638
8	0x3d4cb587	0.049977805
9	0xbd46c51a	-0.048527814
10	0xbed36d0e	-0.4129414
11	0x3b776990	0.003775213
12	0xbb066f14	-0.0020512985
13	0xbea83288	-0.32851052
14	0xbcd95787	-0.026530994
15	0xbc8314b1	-0.016001077

t1.f1.1.running_var f4 [16]
0	0x3cf59bc1	0.029981496
1	0x3d0763a0	0.033053994
2	0x3d5612e3	0.052264106
3	0x36329515	2.6610844e-06
4	0x39eec00d	0.00045537986
5	0x3c11ce1b	0.008899237
6	0x389185fe	6.939097e-05
7	0x3b27b280	0.0025588572
8	0x3b9ec86f	0.004845671
9	0x3a6da7e8	0.00090658525
10	0x3cb89827	0.02253349
11	0x3a46da42	0.00075856235
12	0x3d3521d8	0.04422173
13	0x3db408c7	0.08790737
14	0x392ce1cc	0.00016487314
15	0x3b3595ff	0.0027707813

t1.f1.3.weight f4 [16, 16, 1, 1]
0	0x3e72e480	0.23719978
1	0xbd1f0a22	-0.038828023
2	0xbec1f3ac	-0.3788122
3	0x3a95f3fe	0.0011440513
4	0xbd74e676	-0.059790097
5	0xbc2c7de2	-0.01052806
6	0xbbf607a5	-0.0075082355
7	0x3c4fd300	0.012684584
8	0x3e24c1a9	0.160895
9	0x3c144c27	0.009051359
10	0xbec9e810	-0.39434862
11	0xbd17b28e	-0.037035517
12	0xbe436e14	-0.1908496
13	0xbcd26aae	-0.025685634
14	0xbd08f7b9	-0.03343937
15	0xbe24b26d	-0.16083689
16	0xbe4296bc	-0.19002813
17	0xbe653f68	-0.22387469
18	0xbd7b3e91	-0.061338965
19	0xb8a2374b	-7.735061e-05
20	0xbe0db134	-0.13837129
21	0x3e65b674	0.22432882
22	0xb9bbc0ea	-0.00035811152
23	0x3e876328	0.26442838
24	0xbc810daa	-0.015753586
25	0x3d7ea2ba	0.062166907
26	0xbeb5c68e	-0.35503048
27	0xbe5a1acd	-0.21299286
28	0x3c64e54c	0.013970684
29	0x3e441597	0.19148861
30	0xbe93b63a	-0.28849965
31	0xbd956d7d	-0.07296274
32	0x3e309c1a	0.17247048
33	0x3a1dfcf4	0.00060267677
34	0xbc428eb6	-0.011874845
35	0xbb29d8ba	-0.0025916533
36	0x3e0a46a3	0.13503508
37	0x3dd77616	0.1052057
38	0x399a4fd7	0.00029432654
39	0x3d9fc3bd	0.07801006
40	0x3e396b0c	0.18107241
41	0x3bb03204	0.005377056
42	0x3ebe67b1	0.37188485
43	0xbd01082e	-0.03150194
44	0xbe15b213	-0.14618711
45	0xbe3c86c5	-0.18410785
46	0xbc2a9c8e	-0.010413302
47	0x3e159352	0.1460698
48	0x3d426b75	0.04746576
49	0xbebac491	-0.36478093
50	0xbd383c19	-0.04497919
51	0x39697e2b	0.00022267613
52	0xbe27e6ac	-0.16396588
53	0xbe51f8a8	-0.20505011
54	0x3a9c030d	0.0011902765
55	0xbdd9e000	-0.10638428
56	0xbe865b3c	-0.2624148
57	0x3bff59cb	0.0077926866
58	0xbdcc53b7	-0.09976905
59	0xbbdc8887	-0.0067301425
60	0xbe89035f	-0.26760384
61	0x3dda5a1a	0.10661717
62	0xbcdf8a6d	-0.027287686
63	0x3df9009b	0.121583186
64	0xbb67bc68	-0.0035360102
65	0xbd30b020	-0.043136716
66	0x3d191530	0.03737372
67	0x3b07cdb9	0.0020721985
68	0xbdb73d62	-0.08947255
69	0xbd049f70	-0.032378614
70	0xbcc39792	-0.023875985
71	0xbec5f774	-0.38665354
72	0x3d45d4c7	0.048298623
73	0xbd596e05	-0.05308344
74	0xbc4ff93f	-0.012693702
75	0x3e845e14	0.25853026
76	0x3e32cbaf	0.17460512
77	0x3e5f722d	0.21820898
78	0x3d001e23	0.03127874
79	0xbd9b345d	-0.07578347
80	0xbe51d259	-0.20490398
81	0x3e96050b	0.29300722
82	0xbe06355b	-0.13106291
83	0x39de0dbe	0.00042353378
84	0xbd9ffdfc	-0.078121156
85	0x3eb188e0	0.3467474
86	0x3b043b2b	0.0020176868
87	0x3e9527a6	0.29131812
88	0x3f18d37f	0.5969772
89	0x3e06a293	0.13147955
90	0x3dd09577	0.10184758
91	0xbe24f304	-0.16108328
92	0xbf11cabc	-0.56949973
93	0x3e131e3b	0.14367001
94	0x3b87f5bb	0.0041491664
95	0x3cf91e36	0.030409914
96	0x3d9aebe1	0.075645216
97	0x3f1b3285	0.6062396
98	0xbe122810	-0.14273095
99	0x3a3bfc21	0.0007171054
100	0xbd541c73	-0.051784944
101	0xbd0a7d67	-0.033811
102	0x3bd781d7	0.0065767574
103	0xbe16df02	-0.14733508
104	0xbe2a14ef	-0.16609548
105	0xbc4791f4	-0.012180794
106	0x3df7815c	0.1208522
107	0x3e82ef00	0.25572968
108	0x3cda61af	0.026657907
109	0x3e3cd8bf	0.18442057
110	0x3dae7cd9	0.085199066
111	0xbd9869d6	-0.074420616
112	0xbe113251	-0.1417935
113	0xbed54fab	-0.41662344
114	0x3cf3f0e4	0.029777952
115	0xba713ff3	-0.00092029496
116	0x3d8f6136	0.070009634
117	0xbddd67f9	-0.10810847
118	0x3afe9538	0.0019423133
119	0x3e8b0bfc	0.2715758
120	0xbd6947dc	-0.056953296
121	0xbc1e4893	-0.009660858
122	0x3e13bb0e	0.14426824
123	0x3e3ede81	0.18639566
124	0x3de9ef6e	0.11422621
125	0x3d8c3fff	0.06848144
126	0xbe4db1ec	-0.20087403
127	0x3e1ab62b	0.15108554
128	0xbe643bf8	-0.22288501
129	0x3c2bd4f8	0.010487787
130	0xbdf2fc1f	-0.118644945
131	0xba930f4e	-0.0011219771
132	0x3d52cd99	0.051465604
133	0x3d859e99	0.06524391
134	0xbb13885a	-0.0022511692
135	0x3deae365	0.11469153
136	0x3d187c38	0.03722784
137	0xbd96c0f8	-0.073610246
138	0xbe8f0d0a	-0.27939636
139	0xbe038a61	-0.12845756
140	0x3ecb2393	0.39675578
141	0xbd9eb658	-0.07749623
142	0xbe1db01b	-0.1539921
143	0xbd28ce48	-0.04121235
144	0x3e770296	0.2412208
145	0xbc1015a5	-0.008794223
146	0xbe92c925	-0.28669086
147	0x3adb35eb	0.0016724443
148	0x3db23a28	0.08702499
149	0xbc97f99a	-0.018551636
150	0xb98e2b5e	-0.00027116662
151	0x3cb65108	0.022255436
152	0xbe510c00	-0.20414734
153	0xbd724e34	-0.05915661
154	0xbe03b8d6	-0.12863478
155	0x3ca98c8b	0.020696899
156	0xbf0c5409	-0.5481573
157	0xbcae777a	-0.021297205
158	0xbe818efd	-0.25304404
159	0xbd5fa34f	-0.054599103
160	0xbe26280c	-0.16226214
161	0x3e9e30b1	0.30896524
162	0x3d179b95	0.03701361
163	0xbad33f89	-0.0016116957
164	0x3e764af9	0.24052037
165	0x3e3bac96	0.18327555
166	0xbb7b6b58	-0.0038363542
167	0x3d912be4	0.070884496
168	0x3edd61a0	0.43238544
169	0x3c4a2607	0.012338168
170	0x3e74c31c	0.23902553
171	0x3cd8a74b	0.026446959
172	0xbe9c8ddd	-0.30576983
173	0x3dbdff96	0.09277265
174	0x39266b26	0.0001587091
175	0xbe506c51	-0.2035382
176	0x3e8951de	0.26820272
177	0x3e601f90	0.2188704
178	0xbe29eb0c	-0.1659357
179	0x3a5cc0ac	0.00084210443
180	0x3dbd3a2c	0.09239611
181	0x3db2b4b6	0.08725874
182	0xbc20b5f7	-0.009809009
183	0xbd9202ab	-0.07129415
184	0xb9acef57	-0.0003298472
185	0x3c97a735	0.018512348
186	0xbe9284e8	-0.28617024
187	0x3ec59ccf	0.38596198
188	0xbd867724	-0.06565693
189	0xbd4eaf30	-0.05046004
190	0xbdf1996d	-0.11796842
191	0xbd5c8bb5	-0.053844173
192	0xbc9927fe	-0.018695828
193	0x3e9201e5	0.2851707
194	0xbde78d9f	-0.11306309
195	0xbac88271	-0.0015297664
196	0x3d7cb494	0.06169565
197	0x3e748292	0.23877934
198	0x3bd50fd2	0.00650213
199	0x3e0e34ee	0.13887379
200	0x3ec44f6a	0.38341838
201	0xbd5a6ef4	-0.05332847
202	0x3e02f72e	0.12789604
203	0xbde68817	-0.11256426
204	0x3dc776be	0.09739445
205	0xbdfb1762	-0.12260319
206	0x3e0ae5bb	0.13564198
207	0xbedeb43b	-0.4349688
208	0xbddc79f7	-0.107654504
209	0x3e4d8a18	0.2007221
210	0xbeb0b618	-0.34513927
211	0xbabfcb21	-0.0014632681
212	0x3d425f92	0.047454424
213	0x3e529e49	0.20568193
214	0xbc671290	-0.014103547
215	0xbd5e586d	-0.05428355
216	0xbd084a66	-0.033274077
217	0xbe3251b7	-0.17413984
218	0xbe48a46a	-0.19593969
219	0x3da6ac02	0.08138277
220	0xbe832451	-0.25613645
221	0xbe484e49	-0.19561113
222	0xbdac854b	-0.08423861
223	0x3bd9baa3	0.0066445633
224	0x3e747a0c	0.23874682
225	0x3e296271	0.16541459
226	0xbcce9631	-0.025218101
227	0x3ab56d0c	0.0013841703
228	0x3da4cf9c	0.08047411
229	0xbdff3098	-0.124604404
230	0x383a210b	4.437663e-05
231	0x3e543091	0.20721652
232	0xbea75b89	-0.32687023
233	0xbba0dee4	-0.004909383
234	0x3d4a7469	0.049427424
235	0xbd8e710e	-0.06955157
236	0xbe9edd21	-0.31028083
237	0x3bcaebb7	0.00619265
238	0x3c498959	0.012300813
239	0xbe893cbc	-0.2680415
240	0xbe0dca38	-0.13846672
241	0xbec03d5f	-0.37546822
242	0xbede876c	-0.43462694
243	0x3aba104d	0.0014195532
244	0x3dc3e6e0	0.0956552
245	0x3e1647c6	0.14675817
246	0x3c353fda	0.011062587
247	0x3cbba057	0.022903604
248	0x3908383e	0.00012990923
249	0xbd25dcc6	-0.04049375
250	0x3e256e93	0.16155462
251	0xbe30241d	-0.17201276
252	0xbd032296	-0.032015406
253	0xbea5c4be	-0.32376665
254	0xbe549ce3	-0.20762973
255	0x3e226cc8	0.15861809

t1.f1.3.bias f4 [16]
0	0xbd979425	-0.07401303
1	0xbcb9987f	-0.022655724
2	0x3b34b982	0.0027576392
3	0xbc9a9426	-0.01886947
4	0x3bc21d08	0.005923871
5	0x3c0225b7	0.007943562
6	0x3ba23809	0.0049505276
7	0x3cc8b24d	0.024499083
8	0xbc12e767	-0.008966303
9	0xbd85f7f4	-0.06541434
10	0x3d3e67c9	0.046485696
11	0xbcbad4ef	-0.022806613
12	0x3c767368	0.015042163
13	0xbd2eb9ec	-0.042657778
14	0x3ba92d37	0.0051628607
15	0xbd23e475	-0.040012795

n11.f2.0.weight f4 [16, 1, 3, 1]
0	0x3e41ac02	0.18913272
1	0x3ea5ac47	0.32358
2	0x3edd8b8d	0.4327053
3	0x3eab1dd2	0.3342119
4	0x3ea5065a	0.32231408
5	0xbebb366c	-0.36564958
6	0xbf1d41d0	-0.61428547
7	0xbef8085c	-0.48443878
8	0x3e414789	0.18874945
9	0x3ed122ad	0.40846768
10	0x3d78ef38	0.06077501
11	0xbe4fb66c	-0.20284432
12	0xbec223f4	-0.37918055
13	0xbf29ffc9	-0.6640592
14	0xbb7e978b	-0.003884765
15	0xbe05854d	-0.13039131
16	0x3f0ff131	0.56227404
17	0x3dfa80fe	0.122316346
18	0xbd58c871	-0.05292553
19	0x3e7647a2	0.24050763
20	0x3ec3b8ec	0.38227022
21	0x3f1e6fde	0.61889446
22	0x3ea6932c	0.32534158
23	0x3f141ed5	0.57859546
24	0xbe4b7048	-0.1986705
25	0x3ea71802	0.32635504
26	0x3e8f7f45	0.28026786
27	0xbee9250e	-0.45536083
28	0xbe52a6c8	-0.20571434
29	0x3e73c209	0.23804487
30	0x3db8660f	0.09003841
31	0x3f134381	0.5752488
32	0xbf74609b	-0.9545991
33	0xbed1c293	-0.4096876
34	0x3e94b212	0.29042107
35	0x3f3f29b5	0.74673015
36	0x3f40b13b	0.7527043
37	0x3d8beebd	0.06832645
38	0xbe75240e	-0.23939535
39	0x3ef6a392	0.4817167
40	0x3f041f1d	0.51609975
41	0x3e2429bc	0.16031545
42	0xbe8c7ea9	-0.27440384
43	0xbf31c14e	-0.69435585
44	0xbf060233	-0.52347106
45	0x3e237cbb	0.1596555
46	0x3eed725a	0.46376306
47	0x3f1d222b	0.6138026

n11.f2.0.bias f4 [16]
0	0x38523600	5.0118193e-05
1	0xb708d027	-8.154696e-06
2	0xb89fcbbd	-7.61966e-05
3	0x39235802	0.00015577677
4	0xb844c272	-4.6911133e-05
5	0xb84b2c05	-4.8439968e-05
6	0x36145e57	2.2108632e-06
7	0x37d068ee	2.4844394e-05
8	0xb879a610	-5.9520884e-05
9	0xb900c8b9	-0.00012281806
10	0x380391c2	3.136858e-05
11	0x3684de17	3.959761e-06
12	0x369e60b9	4.720027e-06
13	0xb89077f4	-6.888798e-05
14	0x38b359d3	8.552116e-05
15	0x373a487e	1.1103342e-05

n11.f2.1.bn.weight f4 [80]
0	0x3e69f076	0.22845635
1	0x3f270832	0.6524688
2	0x3f6825a0	0.9068241
3	0x3f2dc0c9	0.6787229
4	0x3f66da80	0.90177155
5	0xbd68d58b	-0.056844275
6	0x3f1c4a40	0.61050797
7	0x3e3f51c2	0.18683532
8	0x3f01ce2c	0.5070522
9	0x3f2e964a	0.6819807
10	0x3fb3b1ce	1.4038637
11	0x3f805f25	1.0029036
12	0x3f198cce	0.59980476
13	0x3eac63fd	0.33670035
14	0x3f479504	0.77961755
15	0x3ec3e93a	0.38263875
16	0x3ed4c1fa	0.41554242
17	0x3e6b9a4a	0.23008075
18	0x3d4986c2	0.04920078
19	0xbda9c3fe	-0.08289336
20	0x3f393d99	0.72359616
21	0x3f3dda74	0.7416146
22	0x3f6064f3	0.87654036
23	0x3f02ecc2	0.51142514
24	0xbe9fa8d1	-0.31183484
25	0x3e8f863a	0.28032094
26	0x3da6562e	0.08121906
27	0x3ec0ccbf	0.3765621
28	0x3ea78fdd	0.32726946
29	0x3e375f1b	0.17907374
30	0x3e7fd9f4	0.24985486
31	0xbd50affe	-0.05094909
32	0x3ee15956	0.4401347
33	0x3ea31fa2	0.3186007
34	0x3f17067c	0.5899427
35	0x3f450e3d	0.7697485
36	0x3eec3d76	0.4614064
37	0x3e8eaa04	0.27864087
38	0x3e8d7059	0.27624777
39	0x3f1296e2	0.5726148
40	0x3f04b576	0.5183939
41	0xbf15b621	-0.5848103
42	0xbcb71965	-0.022350976
43	0x3e3f2f12	0.186703
44	0x3e4f216e	0.20227596
45	0x3eef665f	0.4675779
46	0x3f2d7cab	0.67768353
47	0x3f21491a	0.6300217
48	0x3f0d7b38	0.5526614
49	0x3f39b930	0.725482
50	0x3f127ce1	0.572218
51	0x3f21577b	0.6302411
52	0x3f159caf	0.58442205
53	0x3e77fb05	0.2421685
54	0xbe2180bb	-0.15771763
55	0x3f35293e	0.70766056
56	0x3f01be5b	0.50681084
57	0x3f06419b	0.52443856
58	0x3e7fe56a	0.24989858
59	0x3e16f472	0.14741686
60	0x3f3b8c45	0.7326091
61	0x3ee28133	0.44239196
62	0x3ee30490	0.44339418
63	0x3e8818a7	0.26581308
64	0xbe9ae640	-0.30253792
65	0x3f746932	0.95473015
66	0x3f2bc568	0.67098093
67	0x3ea1d243	0.3160573
68	0x3f0f4b9c	0.55974746
69	0x3edf51a0	0.43616962
70	0x3f006ec2	0.50169003
71	0x3f24e8bb	0.6441762
72	0x3f746ea0	0.954813
73	0x3f862554	1.0480142
74	0x3f8bffec	1.0937476
75	0x3f4e5714	0.8060162
76	0x3f0a0edf	0.5392894
77	0x3ed5498e	0.4165768
78	0x3e6a6ce9	0.22893108
79	0xbbec8a34	-0.0072186235

n11.f2.1.bn.bias f4 [80]
0	0xbbb83437	-0.005621459
1	0x3e1e2932	0.15445402
2	0x3e9a6ba3	0.30160245
3	0x3d8017ca	0.062545374
4	0x3ec6190b	0.3869098
5	0xbec1cf8d	-0.3785366
6	0x3e5d29e1	0.21598007
7	0xbe3a502b	-0.18194644
8	0xbd6c557d	-0.057698715
9	0xbd09e1ae	-0.03366249
10	0x3eb4e6de	0.35332388
11	0x3cc63f7a	0.02420019
12	0x3dbbc4de	0.09168409
13	0xbe0eb6ab	-0.1393687
14	0xbdcca2d6	-0.09991996
15	0x3ef3a2a9	0.47585037
16	0x3dc75f61	0.09734989
17	0xbe69d696	-0.22835764
18	0xbe00c4c3	-0.12575059
19	0xbe120153	-0.14258318
20	0x3ef00d23	0.46885023
21	0x3ecc0074	0.39844096
22	0x3f4e1b1e	0.8051013
23	0x3f104759	0.5635887
24	0x3e8f29d6	0.27961606
25	0x3ea585b4	0.3232857
26	0x3e95ff7c	0.29296482
27	0x3ec5a3a8	0.38601422
28	0xbbf758db	-0.007548434
29	0xbe8f9cc9	-0.28049305
30	0x3e735838	0.23764122
31	0xbebeaedc	-0.37242782
32	0x3efb9f38	0.49144912
33	0x3ec023cb	0.37527308
34	0x3ccef3f6	0.025262814
35	0x3fa06ea0	1.253376
36	0x3ef5313e	0.4788913
37	0x3eca67dc	0.39532363
38	0x3deabd2f	0.11461865
39	0xbc1f458d	-0.009721172
40	0x3e1b028b	0.15137689
41	0xbe9955e0	-0.2994833
42	0x3e3241c3	0.17407899
43	0xbdb4e183	-0.088320754
44	0x3e85c602	0.2612763
45	0xbe1f7c23	-0.15574698
46	0xbe577335	-0.21040042
47	0xbe80b49e	-0.251378
48	0x3ec769e6	0.38947982
49	0xbe32b242	-0.17450812
50	0xbe4fe164	-0.20300823
51	0x3ebe806e	0.3720736
52	0xbf6ed2e6	-0.93290555
53	0xbd87eeb0	-0.06637323
54	0x3e3074f9	0.17232122
55	0x3f4a78fa	0.79090846
56	0xbdd1b9da	-0.102405265
57	0x3dea1cd0	0.11431277
58	0x3eaaff2b	0.33397803
59	0x3d9422e7	0.072332196
60	0x3c89964e	0.016795304
61	0x3e10e3c6	0.14149389
62	0x3f235bcf	0.63811964
63	0x3f1de234	0.61673284
64	0xbe130baf	-0.14359926
65	0x3ed15994	0.40888655
66	0x3f2ba9e1	0.6705609
67	0x3e461c83	0.19346814
68	0x3e605e15	0.2191089
69	0x3eb331f5	0.34999052
70	0x3db8a4f0	0.09015834
71	0x3f0f8cec	0.56074405
72	0x3f6b68db	0.9195687
73	0x3f1567b1	0.58361346
74	0x3ea1730a	0.3153308
75	0x3f43e250	0.765172
76	0xbda95f0e	-0.08270083
77	0x3e05aac6	0.13053426
78	0xbebcfc46	-0.3691122
79	0xbdbd48fb	-0.092424355

n11.f2.1.bn.running_mean f4 [80]
0	0x3e9baf2f	0.30407092
1	0x3ebf34fc	0.3734511
2	0x3e808abe	0.25105852
3	0x3e8867ec	0.26641786
4	0x3e6f0ccc	0.23344725
5	0xbc3cb74a	-0.011518309
6	0x3cd91941	0.0265013
7	0x3d8ae5b9	0.06782097
8	0x3df12c8d	0.117760755
9	0x3ddb0f79	0.106963105
10	0xbf21da47	-0.6322369
11	0xbee1d2c8	-0.44106126
12	0xbea2303f	-0.31677434
13	0xbe963bdc	-0.29342544
14	0xbe36d758	-0.17855585
15	0x3cb78c10	0.022405654
16	0x3c93ad2a	0.018026907
17	0x3cee1cbe	0.02906644
18	0x3d67936f	0.056537088
19	0x3df994ac	0.1218656
20	0xbe70b50a	-0.23506561
21	0xbdb7885f	-0.089615576
22	0xbe392ddb	-0.18083899
23	0xbdadc964	-0.08485678
24	0xbe754e04	-0.23955542
25	0x3e9294ec	0.28629243
26	0x3ecead8b	0.40366778
27	0x3ea006c6	0.31255168
28	0x3daacb1b	0.083395205
29	0x3dd6ec1b	0.10494252
30	0x3e82d130	0.25550222
31	0x3d90d925	0.07072667
32	0x3e95e20c	0.29274023
33	0x3e8137a2	0.25237757
34	0x3d91e270	0.07123268
35	0x3fde0059	1.7343856
36	0x3f82904b	1.0200285
37	0x3f60657b	0.87654847
38	0x3f80e757	1.0070599
39	0x3f8bf5da	1.0934403
40	0x3ca05f68	0.019576743
41	0x3d8f13f7	0.0698623
42	0x3dfb4736	0.12269442
43	0x3dd3fd03	0.103509925
44	0x3e4dfdfa	0.20116416
45	0xbe32f2c1	-0.17475416
46	0xbe56fb22	-0.20994237
47	0xbe37ad04	-0.17937094
48	0xbdca10cc	-0.09866485
49	0xbd6f2f38	-0.05839464
50	0xbec9af07	-0.39391348
51	0xbeaf30fb	-0.34217057
52	0xbe8cd9e6	-0.27509993
53	0xbe0bb7f1	-0.13644387
54	0xbd66a76b	-0.056312006
55	0x3f027156	0.50954187
56	0x3e36ca18	0.1785053
57	0x3e2885c8	0.16457283
58	0x3e0db6b8	0.13839233
59	0x3da9da50	0.08293593
60	0x3ebedd55	0.37278238
61	0x3e8d7a00	0.2763214
62	0x3ded2bc7	0.115806155
63	0x3dff33e2	0.12461068
64	0x3e01a700	0.12661362
65	0x3fa0ff99	1.2578002
66	0x3f56b40f	0.838685
67	0x3eb71809	0.35760525
68	0x3f16b922	0.5887624
69	0x3f3d811f	0.7402515
70	0xbe6f2d3f	-0.23357104
71	0xbe4802bd	-0.19532295
72	0xbe20f087	-0.15716754
73	0xbe81db18	-0.25362468
74	0xbdf9e377	-0.122015886
75	0x3edf3786	0.4359705
76	0x3e7bd437	0.24592672
77	0x3e03b5d7	0.12862335
78	0x3e19d4df	0.1502261
79	0x3d4d9a88	0.0501962

n11.f2.1.bn.running_var f4 [80]
0	0x3c95a6ac	0.018267952
1	0x3d17a20b	0.03701977
2	0x3c9c9560	0.019114196
3	0x3ca76581	0.020434143
4	0x3c8fe72f	0.017566292
5	0x3c03193a	0.00800162
6	0x3ca9b135	0.020714382
7	0x3c47517c	0.0121654235
8	0x3d321bd0	0.043483555
9	0x3d2eaa9e	0.042643182
10	0x3db7a587	0.08967119
11	0x3d4e2830	0.050331295
12	0x3d0497ab	0.032371204
13	0x3c33e857	0.010980687
14	0x3c412c57	0.011790357
15	0x3c601b46	0.0136783775
16	0x3b6b4bb2	0.0035903272
17	0x3bd35e7b	0.006450472
18	0x3cbe34b0	0.023218483
19	0x3d3577c8	0.044303685
20	0x3d87a403	0.0662308
21	0x3d28eb47	0.041240003
22	0x3de85a73	0.11345377
23	0x3cd383cb	0.02581968
24	0x3c1f3167	0.009716368
25	0x3d60fe24	0.054929867
26	0x3ded6c72	0.1159295
27	0x3d8dcca9	0.069238015
28	0x3d391311	0.0451842
29	0x3d2a3b38	0.04156038
30	0x3c912d63	0.017721837
31	0x3cd2acc8	0.025717154
32	0x3c2eaf48	0.0106619075
33	0x3c298f67	0.010349131
34	0x3b119605	0.0022214663
35	0x3edb0709	0.42778805
36	0x3e8258c4	0.25458348
37	0x3ebf503b	0.37365898
38	0x3e64ab42	0.22330955
39	0x3e2d8b69	0.16947712
40	0x3b628ef7	0.0034570077
41	0x3c5be537	0.013421348
42	0x3c5c39a2	0.013441475
43	0x3c1e6a30	0.009668872
44	0x3c51d883	0.012807968
45	0x3c8054eb	0.015665492
46	0x3c20ee98	0.00982251
47	0x3bfb09f7	0.0076611
48	0x3b9f62ea	0.0048640864
49	0x3ac19e9c	0.0014772001
50	0x3eec1f6d	0.46117726
51	0x3eeb1be0	0.45919704
52	0x3ed81518	0.42203593
53	0x3e489352	0.19587448
54	0x3e958259	0.2920101
55	0x3e8451d6	0.25843686
56	0x3e8728d1	0.26398328
57	0x3e9d101b	0.3067635
58	0x3e260629	0.16213287
59	0x3df6b611	0.12046445
60	0x3ead2ac0	0.33821678
61	0x3e215564	0.1575523
62	0x3d99e6cf	0.07514726
63	0x3d75398f	0.059869345
64	0x3d623800	0.055229187
65	0x3ec15fc4	0.37768376
66	0x3e341620	0.17586565
67	0x3d7ec498	0.062199205
68	0x3d638f59	0.05555663
69	0x3df59636	0.11991541
70	0x3d8e2e96	0.06942479
71	0x3da32d1d	0.07967589
72	0x3d830459	0.063973136
73	0x3e0ee9d1	0.13956381
74	0x3d8292e3	0.06375673
75	0x3e594f96	0.21221766
76	0x3db0cb1a	0.086324885
77	0x3d91f7ce	0.07127343
78	0x3d751bee	0.05984109
79	0x3c4124c2	0.011788549

n11.f1.0.weight f4 [16, 1, 1, 3]
0	0x3e9a28f9	0.30109385
1	0x3e7d6aa4	0.24747711
2	0x3d762e7a	0.060102917
3	0x3cd827b0	0.026386112
4	0x3c8ab477	0.016931755
5	0x3c3493ab	0.011021535
6	0x3e1e1e9e	0.15441367
7	0xbd2f0c22	-0.04273618
8	0xbdef34f0	-0.11680019
9	0x3e846a00	0.25862122
10	0x3ea938e8	0.3305123
11	0x3e287da7	0.16454183
12	0xbebb6cce	-0.3660645
13	0x3d6786f7	0.056525197
14	0x3f387c95	0.720651
15	0xbe514ea2	-0.20440152
16	0xbe97cea5	-0.29649845
17	0xbde93e31	-0.11388815
18	0xbddddb98	-0.108329
19	0x3e999b1a	0.30001146
20	0xbda14170	-0.07873809
21	0x3de1d3e4	0.11026743
22	0x3eba5916	0.36396092
23	0xbc94de90	-0.018172532
24	0xbd351741	-0.04421163
25	0x3df746db	0.120740615
26	0x3ea6c00b	0.32568392
27	0x3ec3a831	0.38214257
28	0xbf032c6a	-0.51239645
29	0xbd71f4ce	-0.059071355
30	0xbf151c08	-0.582459
31	0x3efdb43d	0.49551573
32	0xbe433bd6	-0.19065794
33	0xbd0f99f3	-0.035058927
34	0xbebff13f	-0.37488744
35	0xbec3de6c	-0.38255632
36	0xbe91c1c8	-0.28468156
37	0x3b3db61b	0.0028947655
38	0xbdaf1ad0	-0.08550036
39	0x3eccc4a6	0.3999378
40	0x3e82f677	0.25578663
41	0x3c00a218	0.007851146
42	0x3f22555a	0.63411486
43	0x3da45dbc	0.08025691
44	0xbeb3e43c	-0.35135067
45	0x3e71c77b	0.23611252
46	0xbed6b6a1	-0.4193621
47	0xbeb4e6e6	-0.35332412

n11.f1.0.bias f4 [16]
0	0x38031c0b	3.125895e-05
1	0x342d64c9	1.6148546e-07
2	0xb797581a	-1.8041628e-05
3	0x38fd833f	0.000120884266
4	0xb852f10f	-5.0292405e-05
5	0x3861c74d	5.3829794e-05
6	0x363ad79c	2.784166e-06
7	0x3898b367	7.281341e-05
8	0x38346a31	4.3014243e-05
9	0x37df3dbf	2.6612424e-05
10	0x38472c49	4.748654e-05
11	0xb8b36139	-8.553494e-05
12	0x385c8ea0	5.2584917e-05
13	0xb78f663f	-1.709454e-05
14	0x37a51011	1.9677014e-05
15	0x3784bdcb	1.5824005e-05

n11.f1.1.weight f4 [16]
0	0x3ef1bcbb	0.47214302
1	0xbd07f298	-0.03319034
2	0x3e6ec3f6	0.2331694
3	0x3ef4b6b2	0.47795635
4	0x3ef1b2dc	0.4720677
5	0x3e87d9cb	0.2653335
6	0x3e987b20	0.29781437
7	0x3e9a3dff	0.30125424
8	0x3e6b4716	0.22976336
9	0x3f3a3564	0.7273772
10	0x3f0f7e1b	0.56051797
11	0x3f59df50	0.8510637
12	0xbe53b7b3	-0.20675544
13	0x3f3037d8	0.6883521
14	0x3ec655ff	0.38737485
15	0x3eae3d4d	0.34031144

n11.f1.1.bias f4 [16]
0	0xbcc225d7	-0.023699684
1	0x3c2e71bd	0.0106472345
2	0x3c1f72ec	0.009731989
3	0x3defb78e	0.11704932
4	0xbda775ce	-0.08176766
5	0x3e11b2db	0.14228384
6	0xbd5d87c3	-0.05408455
7	0xbdd85bec	-0.10564408
8	0x3d09b9aa	0.03362433
9	0xbf0f6bad	-0.56023675
10	0xbe80952c	-0.2511381
11	0xbf29bb77	-0.66301674
12	0xbdac0543	-0.08399441
13	0xbf3c1854	-0.7347462
14	0xbd3257e8	-0.043540865
15	0x3d86a174	0.065737635

n11.f1.1.running_mean f4 [16]
0	0x3deb8eee	0.11501871
1	0xbbad1365	-0.005281853
2	0xbaf0533d	-0.0018335354
3	0x3c43f7bb	0.011960919
4	0x3e4bc8e5	0.19900854
5	0xbdb158e3	-0.08659532
6	0x3c88263b	0.016619792
7	0x3e500135	0.2031296
8	0x3c7a6ff2	0.015285479
9	0x3c25d661	0.010121913
10	0x3d0bd75a	0.034140922
11	0xbe41bad2	-0.18918923
12	0xbdb92680	-0.090405464
13	0x3e7b9376	0.2456797
14	0x3e30e344	0.17274195
15	0xbd17077f	-0.036872383

n11.f1.1.running_var f4 [16]
0	0x3db56371	0.088568576
1	0x3902a008	0.00012457382
2	0x3c5fc726	0.0136583205
3	0x3ba73756	0.005103032
4	0x3ce731d3	0.028222
5	0x3b874abb	0.0041287816
6	0x3b1ac9c8	0.0023618806
7	0x3bba153e	0.005678802
8	0x3ad86ca0	0.0016511865
9	0x3d2aad8e	0.04166942
10	0x3a63a8bc	0.0008684506
11	0x3b586776	0.0033020652
12	0x3a46647d	0.00075680745
13	0x3d88f7b3	0.0668787
14	0x3d77779e	0.06041681
15	0x3c1e5830	0.00966458
